hand_detect01/hand_dataset/B_1721730462.npy (npy, 376168 bytes, 1 tensors)

array f8 [595, 79]
0	0x3fdf4d0440000000	0.4890757203102112
1	0x3feac635a0000000	0.8366954922676086
2	0x3ea3efa9c0000000	5.941445806456613e-07
3	0x3fdc065c00000000	0.43788814544677734
4	0x3feaacb540000000	0.8335825204849243
5	0xbf9f7af8e0000000	-0.03074253909289837
6	0x3fd9a3e2e0000000	0.40062782168388367
7	0x3fe91aeb80000000	0.7845361232757568
8	0xbfaa45b6a0000000	-0.0513131208717823
9	0x3fd9886e60000000	0.39895209670066833
10	0x3fe72b1960000000	0.7240111231803894
11	0xbfb1749540000000	-0.06818516552448273
12	0x3fda057880000000	0.40658390522003174
13	0x3fe5769f00000000	0.6707301139831543
14	0xbfb5d868a0000000	-0.08533338457345963
15	0x3fd995ea20000000	0.39977505803108215
16	0x3fe52670a0000000	0.6609423756599426
17	0xbfa5b9b8e0000000	-0.042432572692632675
18	0x3fd8fbb960000000	0.39036402106285095
19	0x3fe241b4c0000000	0.5705207586288452
20	0xbfb1d9ba20000000	-0.06972850114107132
21	0x3fd8b17020000000	0.38582995533943176
22	0x3fe05a5c00000000	0.5110301971435547
23	0xbfb7420460000000	-0.09085109084844589
24	0x3fd87f2cc0000000	0.3827621340751648
25	0x3fdd5fb240000000	0.45896583795547485
26	0xbfbb12a9e0000000	-0.10575353354215622
27	0x3fdbdc0f80000000	0.4353064298629761
28	0x3fe4971c80000000	0.6434462070465088
29	0xbfa750eb20000000	-0.04553923383355141
30	0x3fdb2f9dc0000000	0.42478126287460327
31	0x3fe144aa00000000	0.5396318435668945
32	0xbfb1bd6640000000	-0.06929625570774078
33	0x3fdace2600000000	0.41883230209350586
34	0x3fde2f6d00000000	0.47164463996887207
35	0xbfb6bfeae0000000	-0.08886592835187912
36	0x3fda66dc60000000	0.4125281274318695
37	0x3fda61f800000000	0.4122295379638672
38	0xbfba430300000000	-0.10258501768112183
39	0x3fde28c2a0000000	0.47123780846595764
40	0x3fe4b4f3e0000000	0.6470889449119568
41	0xbfaa631180000000	-0.051537081599235535
42	0x3fdd9279a0000000	0.4620651304721832
43	0x3fe19050e0000000	0.5488666892051697
44	0xbfb303a8c0000000	-0.07427458465099335
45	0x3fdd1b9c20000000	0.45481017231941223
46	0x3fdf131bc0000000	0.48554128408432007
47	0xbfb7239dc0000000	-0.09038721024990082
48	0x3fdcab3f60000000	0.44795212149620056
49	0x3fdb750800000000	0.4290180206298828
50	0xbfb9f53120000000	-0.10139758139848709
51	0x3fe03f1380000000	0.507699728012085
52	0x3fe55c8a20000000	0.6675463318824768
53	0xbfaeaa15a0000000	-0.059891391545534134
54	0x3fe0268da0000000	0.5047062039375305
55	0x3fe2f078e0000000	0.5918545126914978
56	0xbfb4d9dd60000000	-0.08144935220479965
57	0x3fe0127280000000	0.5022518634796143
58	0x3fe141fca0000000	0.5393050312995911
59	0xbfb78ef540000000	-0.09202511608600616
60	0x3fdfed35c0000000	0.4988531470298767
61	0x3fdf5c2060000000	0.4899979531764984
62	0xbfb93a9200000000	-0.09854996204376221
63	0x40470cb706f6ea30	46.099335547031274
64	0x404112ca68bb45f4	34.14680203575327
65	0x40232001d385da21	9.562513933266986
66	0x4034d2f25bf345aa	20.824010607617005
67	0x40094fad6e17beaa	3.1639050103184063
68	0x400d5e99f6ac4167	3.6711920996969414
69	0x4023083f7d644035	9.516109388816497
70	0x400a1dbdf8215d84	3.2645224938566475
71	0x4009dfaf03ff726f	3.2342205345469703
72	0x40014f2fc1822cb5	2.163665305886378
73	0x3ffadd0b0a9c4170	1.678965608069202
74	0x400a1b67f786e027	3.2633818948779836
75	0x4021bb298b58a9f1	8.865551333020422
76	0x4012253e901adeef	4.536371471061769
77	0x40102def4efe1fc9	4.0448582022290305
78	0x3ff0000000000000	1.0
79	0x3fdff095c0000000	0.49905914068222046
80	0x3feb1d07e0000000	0.8472937941551208
81	0x3ea2d78e00000000	5.615356712951325e-07
82	0x3fdc4dd020000000	0.4422493278980255
83	0x3feaea9bc0000000	0.8411387205123901
84	0xbfa0131b20000000	-0.031395766884088516
85	0x3fd9ad6760000000	0.4012087285518646
86	0x3fe939fbc0000000	0.7883280515670776
87	0xbfaa175a00000000	-0.05095940828323364
88	0x3fd9974b40000000	0.3998592495918274
89	0x3fe729bec0000000	0.7238458395004272
90	0xbfb12581e0000000	-0.0669785663485527
91	0x3fd9f2a400000000	0.40543460845947266
92	0x3fe5615e60000000	0.6681358218193054
93	0xbfb553fe00000000	-0.08331286907196045
94	0x3fd9838d80000000	0.39865434169769287
95	0x3fe5420400000000	0.6643085479736328
96	0xbfa52b07e0000000	-0.04134392365813255
97	0x3fd8e069c0000000	0.38869708776474
98	0x3fe23d39a0000000	0.5699737668037415
99	0xbfb15ccd40000000	-0.06782229244709015
100	0x3fd8acbb80000000	0.38554275035858154
101	0x3fe05217e0000000	0.5100211501121521
102	0xbfb6a4cd40000000	-0.08845217525959015
103	0x3fd8988a60000000	0.3843103349208832
104	0x3fdd3c1ee0000000	0.45679447054862976
105	0xbfba70eb40000000	-0.10328550636768341
106	0x3fdbd99a80000000	0.4351564645767212
107	0x3fe49fbcc0000000	0.6444991827011108
108	0xbfa6b7e1e0000000	-0.04437166079878807
109	0x3fdb0e2ac0000000	0.4227396845817566
110	0x3fe12ac240000000	0.536469578742981
111	0xbfb10bbfa0000000	-0.06658551841974258
112	0x3fdaaf9280000000	0.4169660806655884
113	0x3fddfb2f40000000	0.46845608949661255
114	0xbfb61b1dc0000000	-0.08635126054286957
115	0x3fda52db80000000	0.4113072156906128
116	0x3fda1bda40000000	0.4079499840736389
117	0xbfb9e6f920000000	-0.10118062049150467
118	0x3fde2dfd20000000	0.4715569317340851
119	0x3fe4b49b00000000	0.6470465660095215
120	0xbfa9e1ca00000000	-0.050550758838653564
121	0x3fdd9ad420000000	0.4625749886035919
122	0x3fe17aa200000000	0.5462198257446289
123	0xbfb2617580000000	-0.07179960608482361
124	0x3fdd35e400000000	0.45641422271728516
125	0x3fdedbb980000000	0.48216092586517334
126	0xbfb6cd0b60000000	-0.08906622976064682
127	0x3fdcc47780000000	0.44949138164520264
128	0x3fdb28fdc0000000	0.424376904964447
129	0xbfba291ea0000000	-0.10218993574380875
130	0x3fe0452300000000	0.5084395408630371
131	0x3fe55864a0000000	0.6670401692390442
132	0xbfae5b3be0000000	-0.05928980931639671
133	0x3fe02f70c0000000	0.5057910680770874
134	0x3fe2ee2de0000000	0.5915746092796326
135	0xbfb4572c20000000	-0.07945514470338821
136	0x3fe01587e0000000	0.5026282668113708
137	0x3fe14ca2a0000000	0.5406048893928528
138	0xbfb7260da0000000	-0.09042439609766006
139	0x3fdfd26300000000	0.49721598625183105
140	0x3fdf8649a0000000	0.49257126450538635
141	0xbfb9300be0000000	-0.09838937968015671
142	0x4045fa296de7f042	43.95438932252047
143	0x4041b531c2add108	35.415581068869926
144	0x401c421a8d9f2f4a	7.064554417458405
145	0x4036870ffc0bcc49	22.527587654953354
146	0x4011b7c1e868d8ad	4.429450637244526
147	0x400e10151d353346	3.7578527719364585
148	0x40256b5494f361db	10.709629683217761
149	0x4013919ee7db3663	4.892207739596048
150	0x4003dacf27a266ba	2.4818404289661347
151	0x400b8b90e650a2e1	3.443147467933486
152	0x4009812886838e5c	3.1880655774018987
153	0x400535e796251709	2.6513206224507297
154	0x401715bd4cad6cf9	5.771229932866157
155	0x40099bc05d94af2b	3.2010505019187767
156	0x400fa41f0f7488b5	3.9551373679579123
157	0x3ff0000000000000	1.0
158	0x3fe02998c0000000	0.5050777196884155
159	0x3feb511980000000	0.8536498546600342
160	0x3ea2c10f00000000	5.589167813013773e-07
161	0x3fdc7ef580000000	0.44524896144866943
162	0x3feb173680000000	0.8465836048126221
163	0xbfa046e640000000	-0.03179091960191727
164	0x3fd9be6400000000	0.40224552154541016
165	0x3fe95ed180000000	0.7928245067596436
166	0xbfaa7d8d60000000	-0.05173913761973381
167	0x3fd999df80000000	0.4000166654586792
168	0x3fe74bdee0000000	0.7280115485191345
169	0xbfb17fb440000000	-0.06835485994815826
170	0x3fd9e13a00000000	0.4043717384338379
171	0x3fe56f2ea0000000	0.6698220372200012
172	0xbfb5bf0400000000	-0.0849459171295166
173	0x3fd9a24ac0000000	0.40053051710128784
174	0x3fe54472c0000000	0.6646054983139038
175	0xbfa3a2bf00000000	-0.03835102915763855
176	0x3fd8f0a580000000	0.3896878957748413
177	0x3fe23c94c0000000	0.5698951482772827
178	0xbfb080f800000000	-0.0644679069519043
179	0x3fd8b45280000000	0.3860059976577759
180	0x3fe053ff00000000	0.5102534294128418
181	0xbfb5d74ea0000000	-0.08531657606363297
182	0x3fd89aa4c0000000	0.384438693523407
183	0x3fdd3d4e40000000	0.4568668007850647
184	0xbfb9b8e880000000	-0.10047772526741028
185	0x3fdbe8de60000000	0.4360881745815277
186	0x3fe4a759e0000000	0.6454285979270935
187	0xbfa5375c20000000	-0.041437987238168716
188	0x3fdb27cf00000000	0.424304723739624
189	0x3fe13784c0000000	0.5380271673202515
190	0xbfb018c260000000	-0.06287779659032822
191	0x3fdac8e5a0000000	0.4185117781162262
192	0x3fde230380000000	0.47088706493377686
193	0xbfb4fa6400000000	-0.08194565773010254
194	0x3fda789e80000000	0.4136120080947876
195	0x3fda48a8a0000000	0.410684734582901
196	0xbfb8ba9920000000	-0.09659726172685623
197	0x3fde294bc0000000	0.47127050161361694
198	0x3fe4bcfba0000000	0.6480692028999329
199	0xbfa8a6f4a0000000	-0.04814876988530159
200	0x3fdd8bec00000000	0.46166515350341797
201	0x3fe178f8e0000000	0.5460171103477478
202	0xbfb191faa0000000	-0.06863371282815933
203	0x3fdd2ccdc0000000	0.45585960149765015
204	0x3fded2e700000000	0.48162245750427246
205	0xbfb5a3f5c0000000	-0.08453308045864105
206	0x3fdccf5960000000	0.4501555860042572
207	0x3fdb1757c0000000	0.42329972982406616
208	0xbfb8d73f60000000	-0.09703441709280014
209	0x3fe0413020000000	0.5079575181007385
210	0x3fe5610980000000	0.6680953502655029
211	0xbfad938200000000	-0.05776602029800415
212	0x3fe0286ae0000000	0.504933774471283
213	0x3fe2ef1080000000	0.5916826725006104
214	0xbfb3ae4e80000000	-0.07687845826148987
215	0x3fe0145360000000	0.5024811625480652
216	0x3fe14f68e0000000	0.5409435629844666
217	0xbfb6358200000000	-0.0867539644241333
218	0x3fdfdbf980000000	0.49780118465423584
219	0x3fdf97f9e0000000	0.493650883436203
220	0xbfb822d3e0000000	-0.09428142756223679
221	0x40455c4d7f55453c	42.721115032802544
222	0x4041b25474046428	35.393202306884916
223	0x4018de1abc28c649	6.216898860920602
224	0x403678ed3d884560	22.472370000619208
225	0x401364483e6b1e49	4.847931838310225
226	0x400e8ca7e43b1ff5	3.818679602674815
227	0x4027b8d44e69bd29	11.8609947685314
228	0x4013047c15b156ca	4.754379595707812
229	0x400171e908e2a44f	2.1806202596822355
230	0x4010ef86c988ed6e	4.233912610037221
231	0x400430086071d90f	2.5234534773582094
232	0x3ffd2a1672a8a368	1.8227753142220653
233	0x4011d160bcdcefcb	4.4544705877160125
234	0x40088f7d74a6f49e	3.0700635064554964
235	0x400bcb06a5de1b94	3.474133773651781
236	0x3ff0000000000000	1.0
237	0x3fe03d16a0000000	0.5074570775032043
238	0x3feb54a220000000	0.8540812134742737
239	0x3ea2f1cc80000000	5.645908913720632e-07
240	0x3fdc9acfa0000000	0.44694891571998596
241	0x3feb177340000000	0.8466125726699829
242	0xbfa077c800000000	-0.03216385841369629
243	0x3fd9ce4dc0000000	0.40321677923202515
244	0x3fe964d980000000	0.7935607433319092
245	0xbfaae28f80000000	-0.052509769797325134
246	0x3fd9a93aa0000000	0.40095391869544983
247	0x3fe74c8120000000	0.728088915348053
248	0xbfb1cb7580000000	-0.06951078772544861
249	0x3fda03c4e0000000	0.4064800441265106
250	0x3fe5680e20000000	0.6689520478248596
251	0xbfb6244dc0000000	-0.08649145066738129
252	0x3fd9c400e0000000	0.4025880992412567
253	0x3fe543e060000000	0.6645357012748718
254	0xbfa41429e0000000	-0.039216335862874985
255	0x3fd8fe6740000000	0.39052754640579224
