hand_detect01/hand_dataset/B_1721723543.npy (npy, 393864 bytes, 1 tensors)

array f8 [623, 79]
000000 00 00 00 80 e5 e2 db 3f 00 00 00 40 0a e8 e5 3f
       0.4357236623764038 0.6845752000808716
000010 00 00 00 80 29 97 a2 3e 00 00 00 00 85 03 de 3f
       5.540393885894446e-07 0.4689648151397705
000020 00 00 00 c0 89 37 e5 3f 00 00 00 60 8f b2 a4 bf
       0.6630295515060425 -0.040424805134534836
000030 00 00 00 e0 c3 4b df 3f 00 00 00 c0 35 b4 e3 3f
       0.4889993369579315 0.6157482862472534
000040 00 00 00 20 28 d9 af bf 00 00 00 a0 e7 9f dd 3f
       -0.062203649431467056 0.4628848135471344
000050 00 00 00 60 64 61 e2 3f 00 00 00 e0 65 0b b4 bf
       0.5743886828422546 -0.07829891890287399
000060 00 00 00 60 1f 3d db 3f 00 00 00 80 fd a5 e1 3f
       0.4256056249141693 0.5515124797821045
000070 00 00 00 e0 fa 26 b8 bf 00 00 00 80 ae f9 dd 3f
       -0.09434478729963303 0.4683643579483032
000080 00 00 00 00 46 66 e0 3f 00 00 00 00 10 83 a9 bf
       0.5124845504760742 -0.04982805252075195
000090 00 00 00 e0 e6 e5 de 3f 00 00 00 e0 93 e8 db 3f
       0.4827820956707001 0.43607041239738464
0000a0 00 00 00 20 91 38 b3 bf 00 00 00 80 53 49 df 3f
       -0.07508189231157303 0.488850474357605
0000b0 00 00 00 e0 a7 7f d8 3f 00 00 00 40 d1 20 b8 bf
       0.3827914893627167 -0.09425075352191925
0000c0 00 00 00 80 36 82 df 3f 00 00 00 c0 f3 7f d5 3f
       0.49232256412506104 0.335934579372406
0000d0 00 00 00 20 a7 8d bb bf 00 00 00 80 7d be db 3f
       -0.10763020068407059 0.43350160121917725
0000e0 00 00 00 20 eb 16 e0 3f 00 00 00 80 b6 d7 a6 bf
       0.5027976632118225 -0.044614508748054504
0000f0 00 00 00 a0 43 ad db 3f 00 00 00 00 35 8a da 3f
       0.43245020508766174 0.4146854877471924
000100 00 00 00 40 4d 3b b1 bf 00 00 00 20 be 83 db 3f
       -0.0673111230134964 0.4299159348011017
000110 00 00 00 80 b7 9e d6 3f 00 00 00 40 1d dc b5 bf
       0.35343730449676514 -0.08538992702960968
000120 00 00 00 80 a8 57 db 3f 00 00 00 c0 49 32 d3 3f
       0.4272252321243286 0.29994434118270874
000130 00 00 00 a0 4d 01 b9 bf 00 00 00 60 59 e0 d9 3f
       -0.09767613559961319 0.4043181836605072
000140 00 00 00 40 19 6b e0 3f 00 00 00 40 eb a4 a5 bf
       0.5130735635757446 -0.042273856699466705
000150 00 00 00 00 83 83 d9 3f 00 00 00 40 24 95 db 3f
       0.3986518383026123 0.43097788095474243
000160 00 00 00 40 78 35 b0 bf 00 00 00 80 b9 4b d9 3f
       -0.06331588327884674 0.39524686336517334
000170 00 00 00 e0 33 0b d8 3f 00 00 00 40 ba 2f b4 bf
       0.3756837546825409 -0.07885326445102692
000180 00 00 00 60 52 14 d9 3f 00 00 00 00 c2 e9 d4 3f
       0.3918653428554535 0.3267674446105957
000190 00 00 00 60 53 af b6 bf 00 00 00 a0 97 3f d8 3f
       -0.08861275762319565 0.3788813650608063
0001a0 00 00 00 60 17 3b e1 3f 00 00 00 00 4e 0a a6 bf
       0.538463294506073 -0.04304736852645874
0001b0 00 00 00 20 6c 90 d7 3f 00 00 00 60 8e 93 de 3f
       0.36818984150886536 0.4777561128139496
0001c0 00 00 00 e0 17 0f b0 bf 00 00 00 20 b9 0d d7 3f
       -0.06273030489683151 0.3602125942707062
0001d0 00 00 00 c0 3e ff db 3f 00 00 00 00 9d a3 b2 bf
       0.4374539256095886 -0.07280904054641724
0001e0 00 00 00 c0 f0 97 d6 3f 00 00 00 e0 27 88 d9 3f
       0.3530237078666687 0.3989352881908417
0001f0 00 00 00 00 b8 1a b4 bf a7 a3 1b fe 25 d4 41 40
       -0.07853269577026367 35.65740944242071
000200 4f 74 27 03 c2 d0 49 40 7e 2a 45 de db ca 38 40
       51.63092078615647 24.79241742313979
000210 ff 54 3e 85 22 e6 00 40 5e ef d5 62 ee 36 11 40
       2.1123705300948354 4.303643745715673
000220 8a 15 49 73 19 62 11 40 89 f9 72 eb 29 f5 e4 3f
       4.345800210319235 0.6549272154441478
000230 dc 3c df 5d 8e 8a 04 40 8b e2 dc e2 f4 5f 0c 40
       2.567654355406928 3.546853802076219
000240 04 d2 dc 93 50 1d 19 40 77 f4 93 65 7f 2b f6 3f
       6.278627691605383 1.3856195419205315
000250 31 90 19 b6 0e b8 11 40 aa 7e b2 41 25 1c 26 40
       4.429743619261033 11.054971745528139
000260 9f af e3 2a 19 60 10 40 76 25 2c 87 62 07 16 40
       4.093846006533481 5.507211792058447
000270 00 00 00 00 00 00 f0 3f 00 00 00 80 6b a2 db 3f
       1.0 0.4317883253097534
000280 00 00 00 e0 1a 1b e6 3f 00 00 00 20 48 ae a1 3e
       0.6908087134361267 5.269285452413897e-07
000290 00 00 00 40 f5 e3 dd 3f 00 00 00 c0 57 62 e5 3f
       0.46703845262527466 0.6682547330856323
0002a0 00 00 00 c0 79 e7 a5 bf 00 00 00 40 07 58 df 3f
       -0.04278164356946945 0.4897478222846985
0002b0 00 00 00 00 ba d0 e3 3f 00 00 00 20 87 cc b0 bf
       0.6192293167114258 -0.06562084704637527
0002c0 00 00 00 e0 77 bd dd 3f 00 00 00 60 d4 6a e2 3f
       0.4646892249584198 0.5755407214164734
0002d0 00 00 00 80 44 39 b5 bf 00 00 00 80 6c 2f db 3f
       -0.08290508389472961 0.4247695207595825
0002e0 00 00 00 c0 3d b1 e1 3f 00 00 00 e0 13 9b b9 bf
       0.552885890007019 -0.10002254694700241
0002f0 00 00 00 e0 ec f4 dd 3f 00 00 00 00 b4 72 e0 3f
       0.4680740535259247 0.5140018463134766
000300 00 00 00 60 fa 84 a9 bf 00 00 00 20 20 da de 3f
       -0.04984266683459282 0.48206332325935364
000310 00 00 00 40 73 d1 db 3f 00 00 00 c0 c1 85 b3 bf
       0.43465882539749146 -0.07625971734523773
000320 00 00 00 60 59 47 df 3f 00 00 00 00 19 76 d8 3f
       0.4887298047542572 0.38220810890197754
000330 00 00 00 c0 e9 b6 b8 bf 00 00 00 c0 8c 94 df 3f
       -0.09654103219509125 0.49344176054000854
000340 00 00 00 80 47 71 d5 3f 00 00 00 c0 05 71 bc bf
       0.33503901958465576 -0.11109958589076996
000350 00 00 00 00 63 cb db 3f 00 00 00 20 44 19 e0 3f
       0.43428874015808105 0.5030842423439026
000360 00 00 00 a0 0f b8 a6 bf 00 00 00 00 82 c3 db 3f
       -0.04437302425503731 0.4338078498840332
000370 00 00 00 c0 31 7c da 3f 00 00 00 e0 47 67 b1 bf
       0.4138302206993103 -0.06798218935728073
000380 00 00 00 e0 4b 96 db 3f 00 00 00 80 fd a9 d6 3f
       0.43104836344718933 0.35412538051605225
000390 00 00 00 c0 ad 9c b6 bf 00 00 00 c0 c0 65 db 3f
       -0.08832822740077972 0.4280855059623718
0003a0 00 00 00 e0 8f 3e d3 3f 00 00 00 e0 f8 5a ba bf
       0.30069348216056824 -0.10295062512159348
0003b0 00 00 00 e0 f1 f3 d9 3f 00 00 00 40 df 60 e0 3f
       0.4055142104625702 0.5118252038955688
0003c0 00 00 00 00 e3 98 a5 bf 00 00 00 20 f9 97 d9 3f
       -0.04218205809593201 0.3999007046222687
0003d0 00 00 00 00 e4 94 db 3f 00 00 00 c0 5a 80 b0 bf
       0.43096256256103516 -0.06445853412151337
0003e0 00 00 00 20 9d 67 d9 3f 00 00 00 a0 1b 05 d8 3f
       0.39694908261299133 0.3753117620944977
0003f0 00 00 00 a0 4a 27 b5 bf 00 00 00 40 14 39 d9 3f
       -0.08263079077005386 0.3941088318824768
000400 00 00 00 a0 d8 d7 d4 3f 00 00 00 e0 c7 4c b8 bf
       0.3256742060184479 -0.09492158144712448
000410 00 00 00 00 c9 4f d8 3f 00 00 00 20 00 26 e1 3f
       0.3798696994781494 0.5358887314796448
000420 00 00 00 00 da 33 a6 bf 00 00 00 40 34 bc d7 3f
       -0.04336434602737427 0.37086206674575806
000430 00 00 00 c0 ed a4 de 3f 00 00 00 40 63 3e b0 bf
       0.4788164496421814 -0.06345196068286896
000440 00 00 00 c0 78 49 d7 3f 00 00 00 c0 e7 15 dc 3f
       0.3638593554496765 0.4388369917869568
000450 00 00 00 20 ee 4a b3 bf 00 00 00 c0 df da d6 3f
       -0.07536209374666214 0.357109010219574
000460 00 00 00 20 8e 99 d9 3f 00 00 00 e0 2e 59 b5 bf
       0.3999972641468048 -0.08339207619428635
000470 6a a0 e0 73 da 63 41 40 55 dd 6b 10 4f 7a 49 40
       34.78010414569947 50.955537846248866
000480 88 4c d0 d3 d7 cb 3c 40 7a 5c cd 8f 9b f0 08 40
       28.796262014726864 3.11748421044791
000490 78 92 88 c1 f2 bc 0e 40 04 7d 72 ee 41 b3 10 40
       3.8422598953059683 4.175056195962728
0004a0 10 af 4e 88 5f 70 fd 3f 88 bc 02 89 04 46 12 40
       1.8399348568445397 4.568376675407428
0004b0 e4 f8 69 e7 a4 6b 0c 40 c8 cb 4c 77 7c 33 13 40
       3.552560623094097 4.800279487669236
0004c0 86 51 59 a2 e5 b4 06 40 25 0b 1f 6f 65 b9 10 40
       2.83832861743048 4.181051002759692
0004d0 5e 93 e3 01 86 33 24 40 40 bc 96 83 0c b5 07 40
       10.100631770162803 2.963402774846628
0004e0 fc 81 04 20 3c 5d 13 40 00 00 00 00 00 00 f0 3f
       4.841049671435481 1.0
0004f0 00 00 00 20 94 ab db 3f 00 00 00 80 55 3a e6 3f
       0.4323473274707794 0.6946208477020264
000500 00 00 00 60 38 d7 a0 3e 00 00 00 20 ce f3 dd 3f
       5.018920887778222e-07 0.4680056869983673
000510 00 00 00 00 9e 7b e5 3f 00 00 00 e0 7b 36 a5 bf
       0.6713399887084961 -0.041431304067373276
000520 00 00 00 80 bc 76 df 3f 00 00 00 60 e8 db e3 3f
       0.49162209033966064 0.6205942034721375
000530 00 00 00 60 a6 27 b0 bf 00 00 00 60 ea d3 dd 3f
       -0.063105009496212 0.46605929732322693
000540 00 00 00 60 9d 6b e2 3f 00 00 00 a0 bf 62 b4 bf
       0.5756365656852722 -0.07963178306818008
000550 00 00 00 80 53 42 db 3f 00 00 00 20 fa ac e1 3f
       0.425923228263855 0.5523653626441956
000560 00 00 00 60 54 8f b8 bf 00 00 00 e0 44 13 de 3f
       -0.09593703597784042 0.4699260890483856
000570 00 00 00 80 6d 80 e0 3f 00 00 00 a0 f2 c5 a7 bf
       0.5156772136688232 -0.046432096511125565
000580 00 00 00 80 1c f6 de 3f 00 00 00 60 21 f7 db 3f
       0.4837714433670044 0.4369586408138275
000590 00 00 00 60 da 56 b2 bf 00 00 00 20 5a 63 df 3f
       -0.07163777202367783 0.49043896794319153
0005a0 00 00 00 40 5c a5 d8 3f 00 00 00 00 6d 5f b7 bf
       0.3850927948951721 -0.09129983186721802
0005b0 00 00 00 c0 4a b5 df 3f 00 00 00 a0 f3 a0 d5 3f
       0.49544018507003784 0.3379487097263336
0005c0 00 00 00 80 a3 0e bb bf 00 00 00 e0 8d e4 db 3f
       -0.10569211840629578 0.43582484126091003
0005d0 00 00 00 c0 60 1f e0 3f 00 00 00 00 f5 53 a5 bf
       0.5038303136825562 -0.041656166315078735
0005e0 00 00 00 40 7f e9 db 3f 00 00 00 80 b0 91 da 3f
       0.4361265301704407 0.4151421785354614
0005f0 00 00 00 a0 8f 6c b0 bf 00 00 00 a0 17 c6 db 3f
       -0.06415650993585587 0.4339655935764313
000600 00 00 00 a0 b3 c8 d6 3f 00 00 00 40 fd 87 b5 bf
       0.3559998571872711 -0.08410628139972687
000610 00 00 00 e0 ea 9f db 3f 00 00 00 c0 ab 5a d3 3f
       0.4316355884075165 0.3024091124534607
000620 00 00 00 00 be 41 b9 bf 00 00 00 a0 ab 0b da 3f
       -0.09865939617156982 0.4069623053073883
000630 00 00 00 40 13 63 e0 3f 00 00 00 e0 f4 9a a4 bf
       0.5120941400527954 -0.04024472460150719
000640 00 00 00 40 23 af d9 3f 00 00 00 80 9f a8 db 3f
       0.40131455659866333 0.4321669340133667
000650 00 00 00 a0 db 8f af bf 00 00 00 40 0c 7d d9 3f
       -0.06164442375302315 0.398257315158844
000660 00 00 00 80 15 16 d8 3f 00 00 00 a0 44 5d b4 bf
       0.3763478994369507 -0.07954815775156021
000670 00 00 00 a0 0a 4d d9 3f 00 00 00 c0 eb de d4 3f
       0.39532724022865295 0.3261060118675232
000680 00 00 00 a0 2e 81 b7 bf 00 00 00 a0 cf 65 d8 3f
       -0.09181491285562515 0.38121405243873596
000690 00 00 00 60 22 27 e1 3f 00 00 00 60 0f a1 a5 bf
       0.5360271334648132 -0.04224441573023796
0006a0 00 00 00 c0 0c d1 d7 3f 00 00 00 20 4c 92 de 3f
       0.37213438749313354 0.4776792824268341
0006b0 00 00 00 20 41 95 af bf 00 00 00 c0 d8 59 d7 3f
       -0.06168559566140175 0.36485880613327026
0006c0 00 00 00 00 a6 f4 db 3f 00 00 00 c0 60 cd b2 bf
       0.43680715560913086 -0.07344631850719452
0006d0 00 00 00 40 a9 e7 d6 3f 00 00 00 20 de 67 d9 3f
       0.35788947343826294 0.39696457982063293
0006e0 00 00 00 60 30 e0 b4 bf 58 e1 4a 96 0d 7f 41 40
       -0.08154585212469101 34.99260214477789
0006f0 49 50 cb 71 19 ab 49 40 a0 71 5a 4c 29 b6 3c 40
       51.33671400477812 28.711567661362665
000700 a3 68 74 08 08 cd 0d 40 ff 6b b8 c0 b2 e6 0f 40
       3.7251129780316474 3.9876456314354978
000710 46 ee 04 be b7 44 0f 40 9e cf 57 41 19 bb 00 40
       3.908553585553622 2.0913567643091957
000720 0e 35 3b 04 f0 a3 13 40 2f bd 98 24 19 c3 0b 40
       4.91009527789471 3.4702628001320117
000730 b5 ae c3 23 14 62 12 40 4c 2b 29 22 3b 7f 07 40
       4.595779951876172 2.9371245068372556
000740 8a ef 44 d7 92 42 10 40 4d dc d3 8d c8 14 23 40
       4.065013278563024 9.54059260569752
000750 19 70 04 12 fc 7c 05 40 27 67 6a 10 5d fc 11 40
       2.686027661095079 4.496448761457748
000760 00 00 00 00 00 00 f0 3f 00 00 00 a0 ad b5 db 3f
       1.0 0.4329637587070465
000770 00 00 00 00 97 4f e6 3f 00 00 00 40 0b 96 a0 3e
       0.6972155570983887 4.943045723848627e-07
000780 00 00 00 a0 fa fe dd 3f 00 00 00 c0 c9 88 e5 3f
       0.46868768334388733 0.6729477643966675
000790 00 00 00 a0 f4 91 a4 bf 00 00 00 40 ae 83 df 3f
       -0.04017605260014534 0.49241214990615845
0007a0 00 00 00 c0 c3 e9 e3 3f 00 00 00 00 4b 55 af bf
       0.6222857236862183 -0.06119760870933533
0007b0 00 00 00 80 4c e7 dd 3f 00 00 00 e0 91 78 e2 3f
       0.46724236011505127 0.5772179961204529
0007c0 00 00 00 c0 0d cf b3 bf 00 00 00 00 61 5f db 3f
       -0.07737813889980316 0.42769646644592285
0007d0 00 00 00 c0 37 b0 e1 3f 00 00 00 a0 e4 e2 b7 bf
       0.5527609586715698 -0.09330586344003677
0007e0 00 00 00 a0 5b 28 de 3f 00 00 00 c0 29 8c e0 3f
       0.4712132513523102 0.517109751701355
0007f0 00 00 00 60 43 6a a6 bf 00 00 00 00 74 1a df 3f
       -0.04377947375178337 0.4859895706176758
