hand_detect01/hand_dataset/W_1721731677.npy (npy, 378696 bytes, 1 tensors)

array f8 [599, 79]
00000000: 0000 00e0 92bb de3f 0000 00e0 82b8 e43f
00000010: 0000 0040 81fd 813e 0000 0060 63d5 dc3f
00000020: 0000 0060 8092 e33f 0000 00c0 2e20 9ebf
00000030: 0000 00c0 b191 dc3f 0000 0060 5e38 e13f
00000040: 0000 0060 2ba2 a3bf 0000 00c0 27ca de3f
00000050: 0000 0020 5d12 df3f 0000 00e0 359e a6bf
00000060: 0000 0060 21ae e03f 0000 0060 3907 dd3f
00000070: 0000 0060 39c3 a9bf 0000 00e0 a16f dd3f
00000080: 0000 0060 9c96 dc3f 0000 00c0 9936 90bf
00000090: 0000 0000 f171 dc3f 0000 00c0 d074 d83f
000000a0: 0000 0000 be8f a0bf 0000 00c0 bbbd db3f
000000b0: 0000 0060 e6d8 d53f 0000 0020 70a7 a8bf
000000c0: 0000 0020 9113 db3f 0000 00c0 022c d33f
000000d0: 0000 00e0 c53e afbf 0000 0060 5fdb df3f
000000e0: 0000 0000 cad6 db3f 0000 0020 3a39 93bf
000000f0: 0000 0080 8b2f e03f 0000 0000 3f23 d53f
00000100: 0000 00a0 f298 a2bf 0000 0060 c16d e03f
00000110: 0000 00e0 5930 d13f 0000 0060 4617 abbf
00000120: 0000 00e0 bb94 e03f 0000 00e0 040b cb3f
00000130: 0000 00e0 f776 b0bf 0000 0000 e1e8 e03f
00000140: 0000 00e0 97d1 dc3f 0000 00e0 0ecb 9abf
00000150: 0000 00c0 f4bf e13f 0000 0020 8cf8 d63f
00000160: 0000 0060 e303 acbf 0000 00e0 8705 e23f
00000170: 0000 0000 e35b d33f 0000 00a0 f69d b3bf
00000180: 0000 0060 f926 e23f 0000 0040 730a d03f
00000190: 0000 0080 12d9 b6bf 0000 00e0 8ec4 e13f
000001a0: 0000 00e0 8831 df3f 0000 00c0 2afd a1bf
000001b0: 0000 0020 0a0c e23f 0000 0060 10c8 da3f
000001c0: 0000 00a0 4c16 aebf 0000 00a0 6191 e13f
000001d0: 0000 00a0 b0cb db3f 0000 0080 2a8b afbf
000001e0: 0000 0060 050e e13f 0000 0080 fcc8 dd3f
000001f0: 0000 0060 d2f9 afbf 404e 0fb6 3821 4540
00000200: a88b 8755 1237 4240 8608 d2a2 e516 3240
00000210: 953e f871 0753 2840 fe8e b593 20ef 1a40
00000220: 2384 5539 6220 1040 d1f0 8d97 60e0 1140
00000230: cc0b f4a7 a31b 1840 b179 b117 6852 1140
00000240: e13a 986f f545 2340 dffa 7b33 fa88 2040
00000250: 13dd 4bb6 54a2 2040 ac69 e7e7 a4d7 3240
00000260: 2f12 364d eff7 6040 d353 f51e 6323 3140
00000270: 0000 0000 0000 3640 0000 0080 b6bb de3f
00000280: 0000 0000 5da8 e43f 0000 0020 5b9c 823e
00000290: 0000 0080 24e6 dc3f 0000 0060 8484 e33f
000002a0: 0000 00a0 66f6 9bbf 0000 00c0 aeb2 dc3f
000002b0: 0000 0080 742c e13f 0000 00a0 bbed a0bf
000002c0: 0000 0060 4f23 df3f 0000 0000 9922 df3f
000002d0: 0000 00e0 0518 a2bf 0000 00a0 25e0 e03f
000002e0: 0000 0040 987f dd3f 0000 0040 9229 a3bf
000002f0: 0000 00c0 2560 dd3f 0000 0080 39af dc3f
00000300: 0000 0080 cd91 8bbf 0000 00a0 4480 dc3f
00000310: 0000 00a0 eac4 d83f 0000 0020 bf9f 9bbf
00000320: 0000 00a0 30d5 db3f 0000 0080 7849 d63f
00000330: 0000 00a0 696e a4bf 0000 0000 c236 db3f
00000340: 0000 0020 72c8 d33f 0000 00a0 27e2 a9bf
00000350: 0000 00a0 18e1 df3f 0000 0000 6dde db3f
00000360: 0000 0020 5aa1 91bf 0000 0060 0c41 e03f
00000370: 0000 0000 dc48 d53f 0000 00e0 8f0a a0bf
00000380: 0000 00a0 ad75 e03f 0000 00c0 996e d13f
00000390: 0000 0000 b23e a7bf 0000 0080 dc8f e03f
000003a0: 0000 0080 829c cb3f 0000 00a0 ee32 acbf
000003b0: 0000 0040 6dea e03f 0000 00c0 d0b0 dc3f
000003c0: 0000 00c0 b81f 9abf 0000 00a0 c2ce e13f
000003d0: 0000 00c0 3403 d73f 0000 0040 329a aabf
000003e0: 0000 0040 d024 e23f 0000 0040 5978 d33f
000003f0: 0000 0020 d61e b3bf 0000 00a0 7a4e e23f
00000400: 0000 00c0 4903 d03f 0000 0060 9182 b6bf
00000410: 0000 00a0 e6c1 e13f 0000 0080 240c df3f
00000420: 0000 0080 bf05 a2bf 0000 0080 6a1a e23f
00000430: 0000 0080 decc da3f 0000 00a0 6b82 acbf
00000440: 0000 0060 39aa e13f 0000 00e0 9ad7 db3f
00000450: 0000 0000 a8a7 adbf 0000 0020 6524 e13f
00000460: 0000 0000 9ed8 dd3f 0000 00a0 9535 aebf
00000470: d7df 54f5 0395 4540 5bdc b3c9 e3d6 4340
00000480: c6fd fda2 0fb5 3440 d0e6 21d0 ebec 2440
00000490: 38b0 20e3 2ca2 1840 d783 a0e5 b6fa 0940
000004a0: 57e9 ea98 984c 0940 3e48 9db8 3c60 1540
000004b0: 721c e959 04a9 1140 90e1 69e0 17d7 2240
000004c0: 10e4 4101 e893 2140 5089 b215 006b 2340
000004d0: 77f1 ef80 9a44 3040 a54c c038 7fbb 6140
000004e0: 5ed9 8fd4 e360 2a40 0000 0000 0000 3640
000004f0: 0000 0000 c3af de3f 0000 0080 fb8b e43f
00000500: 0000 0060 2e50 823e 0000 0080 23e7 dc3f
00000510: 0000 0020 6c6c e33f 0000 0080 d534 9bbf
00000520: 0000 0040 8ab3 dc3f 0000 0040 000a e13f
00000530: 0000 0000 769c a0bf 0000 0000 c43b df3f
00000540: 0000 0080 c8ec de3f 0000 0080 3dd3 a1bf
00000550: 0000 00c0 e2fd e03f 0000 0000 c492 dd3f
00000560: 0000 0060 b220 a3bf 0000 00a0 4959 dd3f
00000570: 0000 0020 e9a4 dc3f 0000 00e0 6a85 8cbf
00000580: 0000 0040 b288 dc3f 0000 0000 25eb d83f
00000590: 0000 00e0 25d9 9cbf 0000 0020 77e3 db3f
000005a0: 0000 00a0 4ea4 d63f 0000 0020 5e5e a5bf
000005b0: 0000 0080 a83e db3f 0000 00c0 605b d43f
000005c0: 0000 0000 fce6 aabf 0000 0040 c7d5 df3f
000005d0: 0000 00e0 89cc db3f 0000 00e0 ee5a 92bf
000005e0: 0000 0000 dd39 e03f 0000 00c0 af43 d53f
000005f0: 0000 0040 c675 a0bf 0000 00e0 8971 e03f
00000600: 0000 0080 3079 d13f 0000 00c0 b0bd a7bf
00000610: 0000 00a0 b38d e03f 0000 00e0 09cf cb3f
00000620: 0000 00e0 48b7 acbf 0000 00e0 b9e8 e03f
00000630: 0000 0000 b192 dc3f 0000 0000 5a02 9bbf
00000640: 0000 00c0 2dc5 e13f 0000 0000 3dfd d63f
00000650: 0000 00a0 2f08 abbf 0000 0000 9819 e23f
00000660: 0000 0000 e76a d33f 0000 0080 bc7e b3bf
00000670: 0000 00c0 cc45 e23f 0000 00a0 56c0 cf3f
00000680: 0000 0020 5b04 b7bf 0000 00c0 99c2 e13f
00000690: 0000 00a0 a9d4 de3f 0000 0080 937b a2bf
000006a0: 0000 0040 3b10 e23f 0000 0080 efb3 da3f
000006b0: 0000 00c0 305d adbf 0000 00a0 1ea2 e13f
000006c0: 0000 0020 36da db3f 0000 00e0 65e6 aebf
000006d0: 0000 0000 6d26 e13f 0000 0020 c6d5 dd3f
000006e0: 0000 0040 e0ad afbf 8b3c cf77 fe67 4540
000006f0: bc90 1792 c196 4440 1b5f f8fc be0c 3940
00000700: 5c7a 6044 8964 2640 7353 bafe 28f1 1d40
00000710: 4c41 248a c432 0f40 1373 90d3 d921 0840
00000720: b2c6 3fea d688 1640 77a2 ad6d 0e79 1240
00000730: 5d83 4fcd d566 2240 7b59 af4d 6fb9 2140
00000740: 3075 05c5 0753 2340 f293 b919 f98d 3140
00000750: 3ddd fe78 60be 6140 d911 7405 acd6 2740
00000760: 0000 0000 0000 3640 0000 00a0 d4a5 de3f
00000770: 0000 0060 c07a e43f 0000 0020 c772 823e
00000780: 0000 00c0 95db dc3f 0000 00c0 9764 e33f
00000790: 0000 00c0 835a 9cbf 0000 00a0 1da8 dc3f
000007a0: 0000 0000 1305 e13f 0000 0080 ddf4 a1bf
000007b0: 0000 0020 322a df3f 0000 0000 05e7 de3f
000007c0: 0000 0080 87ec a3bf 0000 0000 51f4 e03f
000007d0: 0000 00c0 3c7b dd3f 0000 0000 bc0d a6bf
000007e0: 0000 0040 0646 dd3f 0000 0000 a78d dc3f
000007f0: 0000 00a0 2436 90bf 0000 0020 7085 dc3f
0.48019859194755554 0.6475233435630798 1.3403783327703422e-07 0.4505241811275482 0.6116334795951843 -0.029419641941785812 0.4463924765586853 0.5381309390068054
-0.038346629589796066 0.4810885787010193 0.48549583554267883 -0.04417579993605614 0.521256148815155 0.45356592535972595 -0.050317566841840744 0.45993849635124207
0.446692556142807 -0.015833284705877304 0.4444544315338135 0.38212984800338745 -0.03234666585922241 0.4334554076194763 0.3413635194301605 -0.04815245047211647
0.4230692684650421 0.29956120252609253 -0.061025794595479965 0.4977644383907318 0.4349846839904785 -0.018772991374135017 0.5058038234710693 0.3302762508392334
-0.036323148757219315 0.5133978724479675 0.26857611536979675 -0.052911948412656784 0.5181559920310974 0.21127377450466156 -0.0643153116106987 0.5284276008605957
0.45029255747795105 -0.026165230199694633 0.5546821355819702 0.3589201271533966 -0.05471716448664665 0.5631751418113708 0.30248332023620605 -0.07662907987833023
0.5672575831413269 0.25063782930374146 -0.08924975991249084 0.5552439093589783 0.4873983561992645 -0.035134635865688324 0.5639696717262268 0.4184609353542328
-0.05876388028264046 0.5489967465400696 0.4343072474002838 -0.06160862743854523 0.5329615473747253 0.46539223194122314 -0.06245286390185356 42.25954318759295
36.43024701231417 18.089441467549953 12.162166177323607 6.733522708851295 4.031624694675915 4.469118469274876 6.026991485853568 4.330475206572758
9.636638152439845 8.267533882984422 8.317052551994982 18.84236001395918 135.74796162186382 17.138231215376276 22.0 0.48020708560943604
0.6455521583557129 1.3866100800896675e-07 0.4515467882156372 0.6099264025688171 -0.02730713225901127 0.448405921459198 0.5366766452789307 -0.03306375816464424
0.4865301549434662 0.48648667335510254 -0.03533953055739403 0.5273616909980774 0.4609127640724182 -0.03742653876543045 0.4589933753013611 0.44819486141204834
-0.01346169039607048 0.44532886147499084 0.3870188295841217 -0.02697657234966755 0.4348870813846588 0.34823429584503174 -0.0399048812687397 0.4252171516418457
0.30910924077033997 -0.05055354908108711 0.4981137812137604 0.43545079231262207 -0.01721707172691822 0.5079404711723328 0.33257198333740234 -0.03133058175444603
0.514365017414093 0.27237552404403687 -0.04540020227432251 0.5175611972808838 0.21571379899978638 -0.055076081305742264 0.5286165475845337 0.44829195737838745
-0.02551163360476494 0.5564892888069153 0.3595706820487976 -0.05195767432451248 0.5669938325881958 0.3042204976081848 -0.07468927651643753 0.5720799565315247
0.25020068883895874 -0.08792980760335922 0.5549195408821106 0.4851161241531372 -0.035200104117393494 0.5657246112823486 0.4187542200088501 -0.055682528764009476
0.5520293116569519 0.43503448367118835 -0.05791974067687988 0.5356927514076233 0.46634626388549805 -0.05900256708264351 43.164183298533025 39.67882653505577
20.70726984692535 10.462736610544567 6.158374356145991 3.24741916080573 3.1624004313172622 5.343981632804626 4.4150556610612615 9.420104039120616
8.78887943200428 9.70898502163314 16.26798253877629 141.8592799907539 13.189238207397178 22.0 0.4794776439666748 0.6420876979827881
1.3644402940826694e-07 0.4516075849533081 0.6069851517677307 -0.026568733155727386 0.4484582543373108 0.5324708223342896 -0.03244370222091675 0.4880228042602539
0.48320209980010986 -0.03481476008892059 0.5309919118881226 0.4620828628540039 -0.037358831614255905 0.45857468247413635 0.44756534695625305 -0.013926348648965359
0.44584327936172485 0.38935208320617676 -0.028172103688120842 0.4357583820819855 0.35377851128578186 -0.04173559322953224 0.4256993532180786 0.3180772662162781
-0.0525435209274292 0.497422993183136 0.43435904383659363 -0.01792500726878643 0.5070633888244629 0.3322562575340271 -0.03214854747056961 0.5138596892356873
0.2730218172073364 -0.046369098126888275 0.5172975659370422 0.21725581586360931 -0.05608585104346275 0.528408944606781 0.446453332901001 -0.026376157999038696
0.5553196668624878 0.3592064380645752 -0.052796829491853714 0.5656242370605469 0.30339980125427246 -0.07615259289741516 0.5710204839706421 0.24805720150470734
-0.08991021662950516 0.5550049543380737 0.4817298948764801 -0.036099061369895935 0.5644813776016235 0.4172323942184448 -0.05735161155462265 0.55103999376297
0.43519356846809387 -0.060351546853780746 0.5359406471252441 0.4661727249622345 -0.06187344342470169 42.81245324725122 41.17778230810788 25.049789248120856
11.196359764840217 7.485507946131167 3.899788932067315 3.0165287521798603 5.633632335798824 4.6182191025951544 9.200849929767793 8.862177302985165
9.662168652454596 17.554582221800906 141.94927644518057 11.91928116838328 22.0 0.47887149453163147 0.6399843096733093 1.3745092530825787e-07
0.45090240240097046 0.6060293912887573 -0.02768903598189354 0.4477609694004059 0.5318694114685059 -0.035071298480033875 0.48695042729377747 0.4828503131866455
-0.03891395032405853 0.5298237800598145 0.4606468081474304 -0.04307353496551514 0.4573989510536194 0.44614577293395996 -0.015831539407372475 0.44564440846443176
