hand_detect01/hand_dataset/W_1721730190.npy (npy, 376800 bytes, 1 tensors)

array f8 [596, 79]
0	0x3fdec137a0000000	0.4805430471897125
1	0x3fec363140000000	0.8816152811050415
2	0x3eab8fc8e0000000	8.214014428631344e-07
3	0x3fe1077ce0000000	0.5321640372276306
4	0x3fec62e020000000	0.8870697617530823
5	0xbfabfa3740000000	-0.05464337021112442
6	0x3fe1e29e40000000	0.5589133501052856
7	0x3feaf07b80000000	0.8418557643890381
8	0xbfb51a6440000000	-0.08243395388126373
9	0x3fe02a16c0000000	0.5051378011703491
10	0x3fe9aad820000000	0.8021050095558167
11	0xbfb93cdce0000000	-0.09858494251966476
12	0x3fdc755960000000	0.4446624219417572
13	0x3fe898eca0000000	0.7686675190925598
14	0xbfbdb86f20000000	-0.11609549075365067
15	0x3fe1ae84e0000000	0.5525535941123962
16	0x3fe659d340000000	0.6984649896621704
17	0xbfb21f3500000000	-0.0707886815071106
18	0x3fe2adb260000000	0.5837032198905945
19	0x3fe508e640000000	0.6573363542556763
20	0xbfbb158c40000000	-0.10579754412174225
21	0x3fe372c080000000	0.6077578067779541
22	0x3fe418f560000000	0.6280466914176941
23	0xbfc0e9e840000000	-0.13213828206062317
24	0x3fe4472060000000	0.6336824297904968
25	0x3fe2dad7a0000000	0.5892141461372375
26	0xbfc340b800000000	-0.15041255950927734
27	0x3fe0255960000000	0.5045592188835144
28	0x3fe51884a0000000	0.6592429280281067
29	0xbfb1da2180000000	-0.06973466277122498
30	0x3fe06ee800000000	0.5135383605957031
31	0x3fe1136920000000	0.5336194634437561
32	0xbfbac43bc0000000	-0.10455678403377533
33	0x3fe075f7e0000000	0.5144004225730896
34	0x3fdd0753c0000000	0.45357221364974976
35	0xbfc08ba7e0000000	-0.12926195561885834
36	0x3fe08f2300000000	0.5174727439880371
37	0x3fd7cf63c0000000	0.3720330595970154
38	0xbfc24c0160000000	-0.14294449985027313
39	0x3fdd9460e0000000	0.46218129992485046
40	0x3fe54713a0000000	0.6649263501167297
41	0xbfb2686720000000	-0.07190556079149246
42	0x3fdc0fdac0000000	0.43846768140792847
43	0x3fe22e3160000000	0.5681387782096863
44	0xbfbfb68360000000	-0.12387868016958237
45	0x3fdaec1260000000	0.420658677816391
46	0x3fe03ffea0000000	0.5078118443489075
47	0xbfc3527fc0000000	-0.1509551703929901
48	0x3fda3c80a0000000	0.40994277596473694
49	0x3fdc20e800000000	0.43950843811035156
50	0xbfc4d66700000000	-0.16279304027557373
51	0x3fdb4fda80000000	0.4267488718032837
52	0x3fe6b7bc80000000	0.7099287509918213
53	0xbfb35e4440000000	-0.07565714418888092
54	0x3fdaecacc0000000	0.4206954836845398
55	0x3fe5578320000000	0.6669326424598694
56	0xbfbe88e0e0000000	-0.11927609890699387
57	0x3fdb2e1760000000	0.4246881902217865
58	0x3fe72dc080000000	0.7243349552154541
59	0xbfbe67c8a0000000	-0.11877111345529556
60	0x3fdb9f6d80000000	0.4316056966781616
61	0x3fe8d98b80000000	0.7765557765960693
62	0xbfbcea6e60000000	-0.11295213550329208
63	0x404ad79749865e04	53.68430441914464
64	0x4053a6d4b421ffb5	78.60673240013314
65	0x401d5c5d23e54ade	7.340199051732922
66	0x4033fe58e4bb3371	19.993543906882625
67	0x3fff76864e922f87	1.966436678808323
68	0x402ca2854ac125d1	14.317423187329867
69	0x4005ce0e472de463	2.7256131707077187
70	0x400de7bf942034a1	3.7381583759621013
71	0x401f1c374fcee4b7	7.777554747584126
72	0x4028b95a8d1de692	12.362018976116165
73	0x401393f54e7ac1d5	4.894490457766058
74	0x402ebad8ce283d16	15.364935343181553
75	0x403799ef13af7c09	23.60130427393236
76	0x4060e75814991fd9	135.2295020094596
77	0x401b38fa8ae2ecd8	6.805643243885434
78	0x4036000000000000	22.0
79	0x3fde68f860000000	0.47515687346458435
80	0x3fec75af00000000	0.8893656730651855
81	0x3eaaf04980000000	8.028334832488326e-07
82	0x3fe0ce57a0000000	0.5251882672309875
83	0x3fec72a6a0000000	0.8889954686164856
84	0xbfa7fc7920000000	-0.04684809222817421
85	0x3fe1d59de0000000	0.5573262572288513
86	0x3fead51a80000000	0.8385136127471924
87	0xbfb20c3260000000	-0.07049860805273056
88	0x3fe02acd20000000	0.5052247643470764
89	0x3fe97f0820000000	0.7967568039894104
90	0xbfb5ae0f40000000	-0.08468718826770782
91	0x3fdc71e7a0000000	0.4444521963596344
92	0x3fe8808ec0000000	0.7656930685043335
93	0xbfb9c112e0000000	-0.10060232132673264
94	0x3fe1ad8180000000	0.5524299144744873
95	0x3fe65ff540000000	0.6992136240005493
96	0xbfaf0ba320000000	-0.06063565984368324
97	0x3fe2b3fb00000000	0.584470272064209
98	0x3fe517a520000000	0.6591363549232483
99	0xbfb7515500000000	-0.09108477830886841
100	0x3fe36b6540000000	0.6068598031997681
101	0x3fe4140800000000	0.6274452209472656
102	0xbfbd66fe00000000	-0.11485278606414795
103	0x3fe42dab40000000	0.6305748224258423
104	0x3fe2d209c0000000	0.5881394147872925
105	0xbfc0de0fc0000000	-0.13177677989006042
106	0x3fe01c6aa0000000	0.5034688115119934
107	0x3fe53237e0000000	0.6623801589012146
108	0xbfb03a2a00000000	-0.06338751316070557
109	0x3fe05efd60000000	0.5115954279899597
110	0x3fe112dfc0000000	0.533553957939148
111	0xbfb7737880000000	-0.09160569310188293
112	0x3fe0588380000000	0.5108048915863037
113	0x3fdd0019c0000000	0.45313113927841187
114	0xbfbd5f3ec0000000	-0.11473457515239716
115	0x3fe0616a80000000	0.5118916034698486
116	0x3fd7fa1a40000000	0.3746400475502014
117	0xbfc077e8c0000000	-0.12865933775901794
118	0x3fdd782380000000	0.4604576826095581
119	0x3fe57419c0000000	0.6704224348068237
120	0xbfb19b5200000000	-0.06877624988555908
121	0x3fdbc655a0000000	0.43398037552833557
122	0x3fe22fdb80000000	0.5683419704437256
123	0xbfbdb7b1a0000000	-0.11608419567346573
124	0x3fda995ec0000000	0.4156109690666199
125	0x3fe032b540000000	0.5061899423599243
126	0xbfc264da60000000	-0.14370279014110565
127	0x3fd9e16240000000	0.40438133478164673
128	0x3fdc1594c0000000	0.43881720304489136
129	0xbfc423fe40000000	-0.1573484241962433
130	0x3fdb105c40000000	0.4228735566139221
131	0x3fe6e514c0000000	0.7154639959335327
132	0xbfb345b200000000	-0.07528221607208252
133	0x3fdafa2420000000	0.42151740193367004
134	0x3fe571d7e0000000	0.6701468825340271
135	0xbfbe11a560000000	-0.11745675653219223
136	0x3fdb8f4380000000	0.43061912059783936
137	0x3fe7349680000000	0.7251694202423096
138	0xbfbe3b9360000000	-0.11809655278921127
139	0x3fdc10b6e0000000	0.4385201632976532
140	0x3fe8dd0fc0000000	0.7769850492477417
141	0xbfbd16c400000000	-0.11362862586975098
142	0x4049d76c666e283d	51.68299560908097
143	0x4053fa9c240954fe	79.91578007613495
144	0x4026d37ac212c6a5	11.413045944969165
145	0x4034bade99718dd2	20.729959097121373
146	0x400829d16985ca10	3.020418953319002
147	0x4027b251adf1b344	11.848279414896417
148	0x40128d3bf8c6bc97	4.637924086694645
149	0x4015f61147a9910d	5.490300292706036
150	0x4018841d66389fa2	6.12901839943507
151	0x402820e807ace89e	12.064270248276724
152	0x40008a365df4144d	2.06748650933381
153	0x402b1582e19931c2	13.542014169645771
154	0x4037ebf1b7a5e65d	23.921657064440627
155	0x4060fbd4ffcd8d4c	135.86975088259567
156	0x40164e47813a478f	5.576444644147968
157	0x4036000000000000	22.0
158	0x3fde463200000000	0.4730343818664551
159	0x3fec821ea0000000	0.89088374376297
160	0x3eaa8fb5c0000000	7.915904234323534e-07
161	0x3fe0c50580000000	0.5240504741668701
162	0x3fec750e80000000	0.889289140701294
163	0xbfa7c942e0000000	-0.04645737633109093
164	0x3fe1d73e40000000	0.5575248003005981
165	0x3feacf5800000000	0.8378105163574219
166	0xbfb1c9c1e0000000	-0.06948482245206833
167	0x3fe01f5520000000	0.503824770450592
168	0x3fe96b0a80000000	0.7943165302276611
169	0xbfb55f1200000000	-0.08348190784454346
170	0x3fdc4d7ce0000000	0.4422294795513153
171	0x3fe872d760000000	0.764018714427948
172	0xbfb95fb3c0000000	-0.09911654889583588
173	0x3fe19ed140000000	0.550636887550354
174	0x3fe6456860000000	0.6959726214408875
175	0xbfae6b7280000000	-0.05941350758075714
176	0x3fe29b5f80000000	0.5814664363861084
177	0x3fe4df0100000000	0.6522221565246582
178	0xbfb6cefe00000000	-0.08909595012664795
179	0x3fe352ca40000000	0.6038562059402466
180	0x3fe3dfafe0000000	0.621055543422699
181	0xbfbcc50560000000	-0.11238130182027817
182	0x3fe418e100000000	0.6280369758605957
183	0x3fe2acc8e0000000	0.583591878414154
184	0xbfc0843b80000000	-0.12903541326522827
185	0x3fe00a5640000000	0.501261830329895
186	0x3fe520dd40000000	0.6602617502212524
187	0xbfafc28a40000000	-0.0620310977101326
188	0x3fe0493140000000	0.5089346170425415
189	0x3fe0fb39e0000000	0.530667245388031
190	0xbfb6c8ad20000000	-0.08899957686662674
191	0x3fe0402e00000000	0.5078344345092773
192	0x3fdcc37460000000	0.44942960143089294
193	0xbfbcbdd020000000	-0.11227131634950638
194	0x3fe046a100000000	0.5086216926574707
195	0x3fd7ca95e0000000	0.37173983454704285
196	0xbfc03b62a0000000	-0.12681229412555695
197	0x3fdd512040000000	0.458076536655426
198	0x3fe56e2920000000	0.6696973443031311
199	0xbfb136c780000000	-0.06724211573600769
200	0x3fdb97f8c0000000	0.4311506152153015
201	0x3fe22d2aa0000000	0.5680134892463684
202	0xbfbcd98c40000000	-0.11269451677799225
203	0x3fda698b20000000	0.4126918613910675
204	0x3fe03172a0000000	0.506036102771759
205	0xbfc1e28ba0000000	-0.13972611725330353
206	0x3fd9aa16c0000000	0.40100640058517456
207	0x3fdc365340000000	0.4408157467842102
208	0xbfc39f4940000000	-0.1532985270023346
209	0x3fdadd0b80000000	0.41974151134490967
210	0x3fe6e43a20000000	0.7153597474098206
211	0xbfb2dd2ec0000000	-0.07368747889995575
212	0x3fdaca36a0000000	0.4185921251773834
213	0x3fe54bc400000000	0.6654987335205078
214	0xbfbd00c5a0000000	-0.11329302936792374
215	0x3fdb570d20000000	0.4271881878376007
216	0x3fe6ede940000000	0.7165418863296509
217	0xbfbcf57500000000	-0.11312037706375122
218	0x3fdbbe9f60000000	0.4335096776485443
219	0x3fe888af40000000	0.7666851282119751
220	0xbfbbc6b380000000	-0.10850068926811218
221	0x404968bb09fa2ad0	50.81820797648618
222	0x40541f88001e2b60	80.49267580934747
223	0x402933eb2a40e004	12.601403541964835
224	0x40321c15bbce2b3e	18.109706628641327
225	0x4002406252dbb443	2.281437537507857
226	0x402622fb530918ab	11.068323702679058
227	0x4012fb629bf68606	4.745493351861574
228	0x40177490929e4005	5.863832751187151
229	0x40162b73fee45ed9	5.542434675873403
230	0x402853e20aaa8053	12.163833936036246
231	0x3ffc0bae9228c6db	1.7528520306918185
232	0x402960285537b9c4	12.687807715465972
233	0x403547880ff25745	21.27941989580656
234	0x40619fdf636255b9	140.9960190697291
235	0x40163f90999d198e	5.562075042928326
236	0x4036000000000000	22.0
237	0x3fde1d9640000000	0.47055584192276
238	0x3fec8b4ae0000000	0.8920034766197205
239	0x3eab566c00000000	8.147235348587856e-07
240	0x3fe0bc6bc0000000	0.5230005979537964
241	0x3fec783760000000	0.8896748423576355
242	0xbfa8ca5dc0000000	-0.048418931663036346
243	0x3fe1d2bb00000000	0.556973934173584
244	0x3feac15e80000000	0.8361046314239502
245	0xbfb25efe40000000	-0.07176198065280914
246	0x3fe00fc3c0000000	0.5019243955612183
247	0x3fe9544500000000	0.791536808013916
248	0xbfb5dfca80000000	-0.08544602990150452
249	0x3fdc118000000000	0.438568115234375
250	0x3fe85deaa0000000	0.7614644169807434
251	0xbfb9bd0a40000000	-0.10054077208042145
252	0x3fe1948d80000000	0.5493838787078857
253	0x3fe63b3860000000	0.6947290301322937
254	0xbfaf7dd580000000	-0.06150691211223602
255	0x3fe29fe800000000	0.5820198059082031
